production_models/model.onnx (onnx, 148597 bytes, 13 tensors)

classifier.1.bias f4 [37]
000000 d4 3d cd 3c 64 11 55 bb 61 2f d6 3c 6e 73 94 ba
       0.025053896 -0.0032511586 0.026145639 -0.0011325905
000010 13 d5 04 3d 1f e9 87 bc 31 f9 e7 3b f8 46 05 3d
       0.032429766 -0.016590653 0.0070792665 0.032538384
000020 70 ba a8 3c 4d f5 d2 bc ea f7 64 3b 6c c1 a7 3c
       0.020596713 -0.025751734 0.0034937807 0.020477973
000030 21 39 55 3b 0c 31 93 39 af 9c a8 3c 6c 49 b5 3b
       0.0032535272 0.00028074568 0.020582525 0.005532434
000040 d7 80 13 3d d5 6b 71 3c 80 1d ce 3a f3 bd c5 bb
       0.036011543 0.014735182 0.0015725344 -0.0060346066
000050 85 6e e8 3a c1 b0 82 3c bd f1 4a 3c 76 22 f8 bc
       0.0017733133 0.015953423 0.012386736 -0.03028987
000060 05 8b 62 3c 74 32 c6 3b 79 4c 91 bc e2 01 ad 3c
       0.01382709 0.006048495 -0.01773666 0.021119062
000070 d2 84 ea bc 41 df b2 bc d4 92 4b bc bc 42 c3 bc
       -0.028627787 -0.021834971 -0.012425143 -0.023835532
000080 e3 da fb bb b6 9b 15 3c 64 95 38 3c 5c 9d fd bc
       -0.0076860054 0.009131363 0.011266086 -0.030958824
000090 29 8e fc 3c
       0.030829506

input_bias f4 [32]
000000 09 2c b0 bd 04 f9 0f 3f 42 05 b3 3e 04 8f 90 3e
       -0.08602149 0.5623934 0.3496495 0.28234112
000010 93 b0 77 3f 0f 50 24 3f b7 87 fd 3e 53 bb 11 3f
       0.96753806 0.6418466 0.49517605 0.5692646
000020 0e 2f 1e 3f 2c 83 bf 38 e7 87 9a be ff 4e 75 3f
       0.6179055 9.1320224e-05 -0.3018181 0.95823663
000030 69 c6 e3 3e ce 70 be be c0 c4 0e ba c0 d5 c5 3b
       0.44487312 -0.37195438 -0.0005446188 0.006037444
000040 1d 2f 2a bd 1c e7 94 bc 13 a6 ae 3e d6 a8 00 3e
       -0.041548837 -0.018176608 0.3411108 0.12564406
000050 92 43 8a be 32 7d fe 3e 0e 14 bd 3e 10 50 7b bc
       -0.27004677 0.4970489 0.36929363 -0.015338913
000060 47 cc f9 be f2 d3 02 3f 47 f5 9a be d2 08 20 3f
       -0.48788664 0.5110465 -0.30265257 0.6251346
000070 32 aa 00 be 45 a1 90 bd 06 d4 b5 3e a6 fb 8a 3e
       -0.12564924 -0.0706201 0.35513324 0.27145118

hardtanh_bias f4 [32]
000000 ee e8 42 bc fb ff 6e 3f 80 05 27 bc 9d 8a d5 3e
       -0.011896355 0.93359345 -0.010194182 0.41707316
000010 85 1a 85 3e 26 e2 57 3f fe 48 5f 3f 21 fb d1 3e
       0.25996795 0.8432945 0.8722075 0.4101191
000020 16 36 71 40 ce fa 98 bb 27 7f ac 3e 95 4b a7 3e
       3.7689261 -0.00466857 0.3369076 0.32674852
000030 93 57 4b 3f a2 67 d4 be b9 d5 b9 bb 23 26 b5 bb
       0.794305 -0.41485316 -0.0056712297 -0.005528228
000040 bc 7c 08 3c 43 f6 5e 3c 18 98 1c 3c e7 fc a3 3d
       0.00833052 0.013608518 0.009557746 0.08007222
000050 d4 10 94 be a0 7b cb 3f 2e ff 61 3f 54 80 a0 3a
       -0.2891909 1.5897102 0.8828 0.0012245276
000060 19 c4 42 3f 5c b6 9a be ba 5a bc be 93 d5 5d 3f
       0.7608047 -0.30217254 -0.3678797 0.86654013
000070 1a 0c 2d 3f 86 b5 a3 3e a5 94 79 3f 1f 69 4f be
       0.6759659 0.3197443 0.9749244 -0.20254944

hardtanh_1_bias f4 [16]
000000 f6 a1 09 c0 24 3e d9 3e 12 30 a3 bf ac e6 86 3f
       -2.1505103 0.42430222 -1.2749045 1.0539145
000010 40 d6 cf bd 50 a6 ed be c2 23 2c bf 66 70 ed bf
       -0.10148287 -0.4641595 -0.6724206 -1.8549926
000020 df ed 56 bf 36 0f d4 bf 04 1c c8 3f 9e 58 d9 be
       -0.8395671 -1.6567142 1.563355 -0.42450422
000030 c7 92 38 bf 8a 83 2e be bc 5e d2 3f c6 a8 b6 3f
       -0.72098964 -0.17042366 1.6435161 1.4270256

hardtanh_3_bias f4 [24]
000000 4f 24 93 bf b7 5b 05 3f c1 79 34 bf 30 54 45 be
       -1.1495456 0.5209307 -0.7049828 -0.19270396
000010 a7 a9 bf bd 51 73 44 bf 2a f0 d9 be 41 4a 26 3e
       -0.093585305 -0.7673846 -0.42566043 0.16239263
000020 c9 1a 3e be de a4 8a 3c fd 46 e1 3c 24 41 cb 3e
       -0.18564905 0.016924318 0.02749967 0.39698136
000030 ca 7f 0d 3e ec 95 e7 3f ae b7 a9 3f 4a 03 52 3f
       0.13818279 1.8092628 1.325918 0.8203627
000040 ce d6 4d 3e 35 31 66 be bc c9 fc be bd da 0e 3e
       0.20101473 -0.22479708 -0.4937266 0.1395063
000050 ce 6b b7 3e 09 bc 93 3e b3 18 16 3e 20 2c 02 3e
       0.35824436 0.28854397 0.1465786 0.12712145

hardtanh_5_bias f4 [24]
000000 b5 b6 bd bf f4 10 86 bf 4e e8 ba 3d 08 da 44 be
       -1.4821383 -1.0473924 0.0912634 -0.19223797
000010 32 48 a2 bf 4c d4 85 3f 6c 1c 45 3f 58 ec b4 3d
       -1.2678282 1.0455413 0.76996493 0.088341415
000020 e5 57 cf 3d 37 ba 9d bd 79 97 10 c0 c4 54 23 bf
       0.101241864 -0.07701533 -2.2592452 -0.6380122
000030 ff ec 1d 3f 1a d3 97 bf 58 30 1e 3e de 3e aa be
       0.6168975 -1.1861298 0.15448129 -0.3325109
000040 db 6f bc 3e e0 56 0b bf 4a 77 03 bf f8 ad b0 3e
       0.3680409 -0.54429436 -0.51353896 0.34507728
000050 55 11 6e 3f 06 83 59 3f 1b fa 00 c0 46 ab a5 3f
       0.92995197 0.8496555 -2.0152652 1.2942894

hardtanh_7_bias f4 [32]
000000 51 3a 5d 3f 46 85 05 3f c6 1e 18 bf 5f 34 34 3f
       0.8641711 0.52156484 -0.59421957 0.7039241
000010 18 44 f4 3d 31 be bc bf 03 4d 83 be df 32 3e be
       0.1192705 -1.4745542 -0.25644693 -0.18574093
000020 dc 3c 26 3d 18 f5 d7 bf a7 7d 3c 3f ed b5 ad 3f
       0.040585384 -1.6871672 0.7362923 1.3571144
000030 9b 83 1a 3f 83 c5 60 3f a9 21 73 3d 76 10 05 bf
       0.60357064 0.8780138 0.059358273 -0.5197824
000040 f9 7f 31 3f 89 7e d0 bd c0 0d 0c 3f 28 66 98 be
       0.69335896 -0.10180385 0.5470848 -0.2976544
000050 a1 78 17 be 63 a3 cf 3e 8e d7 07 bf 41 25 cc 3e
       -0.1479211 0.40554342 -0.53063285 0.39872172
000060 f1 e9 44 bf 1e 76 80 3f 5b 16 32 be 75 b7 8c bf
       -0.76919466 1.0036047 -0.1739134 -1.0993487
000070 0e 18 93 3e 8a 3f 78 bf 38 36 24 bf bb c9 36 be
       0.2872929 -0.9697195 -0.6414523 -0.17850392

hardtanh_9_bias f4 [32]
000000 d8 1f 95 3d fe 66 63 3e d5 19 ce be 10 10 2c 3f
       0.07281464 0.22207257 -0.40254083 0.6721201
000010 b8 74 7b be 76 11 48 bd 10 38 2b 3e 91 67 bf be
       -0.24556243 -0.048844777 0.16720605 -0.37383702
000020 35 7a 06 bf 0a 85 d1 3d d0 98 f7 3d b9 7f 5b be
       -0.52530223 0.10230453 0.120896935 -0.21435441
000030 0c 8f db be cc ea 0e bf 0f 47 a0 3c 6d d2 bd be
       -0.42882574 -0.5582702 0.019565133 -0.37074605
000040 0b 5d c9 3e f3 5c 36 be 60 35 14 3e 87 e4 ec 3e
       0.393288 -0.17808895 0.14473486 0.46268103
000050 6e da 4c 3f e9 4f b8 be 41 3d 6a 3e a0 75 02 bf
       0.800208 -0.35998467 0.22874929 -0.5096073
000060 0d f4 d0 3d 4f 3b 29 be c2 d8 e7 be 2a 03 fe 3e
       0.10202799 -0.1652653 -0.4528256 0.4961179
000070 ee 34 06 3f 7c 05 23 be ef 61 74 be 5a 3a 26 3e
       0.52424514 -0.15920061 -0.23865484 0.16233197

hardtanh_11_bias f4 [32]
000000 62 a9 ce be a1 d8 67 3d c7 9a 82 be 11 63 69 3e
       -0.40363604 0.056603078 -0.2550871 0.22791697
000010 80 b7 82 3e f7 03 9a 3e 2f 51 c6 be 94 d6 64 3e
       0.25530624 0.3008115 -0.38733813 0.2234748
000020 e2 4d 86 bc 4d 84 14 3f 15 e2 6a 3e a1 4b 17 3e
       -0.01639456 0.58014375 0.22937806 0.14774944
000030 1f a7 23 3e 68 a6 70 3e a2 d0 8c 3e 23 b7 0d bf
       0.1598172 0.23500979 0.27502924 -0.5535757
000040 fa 92 18 bf 0b 9d 03 bf 44 78 b7 3d 9c f5 47 3f
       -0.5959927 -0.51411504 0.08958486 0.78109145
000050 41 4c a0 3e d9 5b 41 3e 72 cb 87 bd 28 f9 6c 3e
       0.31308177 0.18882693 -0.06630601 0.2314192
000060 eb 2d bd bd 11 f6 1f bf 59 21 b9 be f2 6b c8 3e
       -0.09237274 -0.6248484 -0.36158255 0.39144856
000070 a7 4e 9e be 98 49 f7 be 2c e2 fe 3e be 24 a9 be
       -0.30919382 -0.48298335 0.4978193 -0.33035845

hardtanh_13_bias f4 [64]
000000 ef 55 f1 be ff 19 15 be 6f a0 4c bf ec 0a 8c bd
       -0.47135875 -0.14560698 -0.799323 -0.06838021
000010 9f bc 1b bf 5e 77 ba bd ee 9a f3 3d ee 1a 5c bf
       -0.6083469 -0.09104799 0.11894785 -0.8597859
000020 48 81 34 bd cd 3a e9 3f 2d cb a6 bf c2 75 92 3f
       -0.044068605 1.822107 -1.3030754 1.1442187
000030 d9 00 80 3d 9d 34 f6 be 26 e8 cb 3e e4 ba f5 3d
       0.06250162 -0.48087016 0.39825553 0.11998537
000040 d6 7c 5a be 9f eb 97 be f0 df 1c be 30 2d 96 be
       -0.21336684 -0.29671952 -0.153198 -0.2933135
000050 7f b4 51 bd 10 9b 6b bf e6 2b 36 3f bf af e1 3e
       -0.051197525 -0.9203348 0.71160734 0.44079396
000060 e6 e5 fe 3d f3 91 1d be 59 b4 3a 3f c2 2e 4b bf
       0.124461934 -0.15387706 0.7293144 -0.7936822
000070 65 bd 3c 3e d5 9f 7c bf 47 79 12 3e ed 23 7f 3e
       0.18431623 -0.98681384 0.14304076 0.24916048
000080 dd 1f 90 3f 21 49 e4 3e 7e c6 97 3e 3b 08 c4 bd
       1.1259724 0.44587043 0.29643625 -0.09571882
000090 24 a2 de bd 6b b1 0b bd 18 e7 92 bf 06 0a 21 be
       -0.108707696 -0.034104746 -1.1476774 -0.1572648
0000a0 38 ef 93 3f c0 8f 45 3f b7 62 37 bf 13 91 56 bf
       1.1557379 0.7717247 -0.71635 -0.83815116
0000b0 04 12 36 bf c5 2b ac bc 51 10 50 3e 63 05 c5 be
       -0.7112124 -0.021016965 0.20318724 -0.38480672
0000c0 18 3d 38 3f 70 13 bc 3e f7 0d 0c 3f 1c 5f 36 3e
       0.7196822 0.3673358 0.5470881 0.17809719
0000d0 07 ef 9d 3f 50 58 07 3f 2a 0c 61 3f b5 61 59 bc
       1.233857 0.5286913 0.87909186 -0.013267924
0000e0 d4 e0 74 3f dd 6b 8e bf d7 74 57 3e d6 cd 97 be
       0.9565556 -1.1126667 0.21040665 -0.29649228
0000f0 56 f8 7a be 46 78 0d 3f fc 67 81 3f e5 22 35 be
       -0.24508795 0.5526165 1.0109859 -0.17689092

hardtanh_15_bias f4 [64]
000000 24 c2 ac be 12 d2 20 be 51 49 b4 3d 50 e8 89 3e
       -0.33741868 -0.15705135 0.088030465 0.26935053
000010 bf da 1f be 6f e0 df 3c d0 50 ab 3c f4 1c 0c bf
       -0.15610789 0.027328698 0.020912558 -0.5473168
000020 73 54 a9 be 43 f2 7b 3c 34 4c 88 be 2f d3 0c 3e
       -0.33072242 0.015377584 -0.26620638 0.13752435
000030 3e 13 b2 3d 8a 4d b9 bd 96 09 7d 3d ed 38 97 3e
       0.086950764 -0.090479925 0.06177672 0.29535618
000040 a5 00 8c 3e 83 12 9c 3d 58 e4 a8 3e cc 6c 7f be
       0.27344242 0.07620718 0.32986712 -0.24943846
000050 55 c2 32 be cf 2e 02 bf a7 fa fd 3b d7 47 02 3f
       -0.17456944 -0.50852674 0.0077508274 0.5089087
000060 34 1d 06 3e cd 04 80 be 55 fd 89 3f b5 44 2d be
       0.13097078 -0.25003663 1.0780436 -0.16920741
000070 de 5f 51 3e 07 f0 eb 3d d3 28 c5 3e c4 98 35 3f
       0.20446727 0.11520391 0.3850771 0.70936227
000080 10 0c e7 bd c3 7c 13 3e 75 9e 8f bf 29 e1 03 bf
       -0.112815976 0.14403062 -1.1220232 -0.5151544
000090 c7 5f 17 3f e9 f6 54 bd 1d 08 0a 3e dd 8c 87 be
       0.5913052 -0.051993284 0.13479657 -0.26474658
0000a0 15 f5 e6 bd b5 86 b1 be f0 80 92 3e 1a 6b bc bd
       -0.112772144 -0.34673086 0.28613997 -0.092001155
0000b0 32 98 06 3f 94 5b 20 3e 64 36 91 3b 9c 6e 44 3f
       0.5257598 0.15659934 0.0044315327 0.76731277
0000c0 c5 49 38 3e fc f8 31 3e 9b 6d c1 bd 73 a9 99 3e
       0.17996891 0.17380136 -0.09444734 0.30012092
0000d0 02 5b 15 3e 1c f4 59 be 1a 93 b8 be e3 a4 e1 3e
       0.14585498 -0.21284527 -0.3604973 0.4407111
0000e0 15 a2 c8 3e 5f 3f 9f bd 1e 6f 98 3e 41 cf 66 3f
       0.3918616 -0.07775759 0.29772276 0.90159994
0000f0 30 e4 4d 3f 2c fc 22 bf e6 45 c2 ba 73 83 8f be
       0.8042631 -0.63666034 -0.0014821857 -0.28029975

hardtanh_17_bias f4 [64]
000000 fe 4a 92 3e 57 55 0b 3e 85 9c a4 be 88 73 16 be
       0.2857284 0.13606773 -0.32150665 -0.14692509
000010 71 d0 92 be b8 d4 8a be ae 6e 84 3e b2 14 8f 3d
       -0.28674653 -0.27115417 0.25865692 0.06986369
000020 a4 ef da be 30 29 98 3d 1b 30 1e 3e fb 5f 80 be
       -0.42760956 0.07429731 0.15448038 -0.25073227
000030 59 72 d5 bd e0 21 96 be ed a0 99 3d 91 5c 99 3e
       -0.10422201 -0.2932272 0.07501397 0.29953435
000040 65 9e 21 3e 68 1d 9a be a9 89 b7 3e 0f a6 6c 3d
       0.15783079 -0.3010056 0.35847214 0.057775553
000050 14 2b 90 3e 36 97 ea 3e af 37 8f 3e 6c 55 48 bd
       0.28157866 0.4581849 0.2797217 -0.04890959
000060 4b 1d 5e 3e 1a e3 d8 bd 93 3f 23 3e d7 d8 ad bc
       0.21690862 -0.10590191 0.1594222 -0.021221561
000070 82 e4 09 3d 57 53 fd 3b cf 58 0c 3c 0c 91 95 bd
       0.033665188 0.007730882 0.0085660955 -0.07303056
000080 d6 68 e6 bc 48 0b d1 be 37 20 2c 3e 99 17 61 be
       -0.028126162 -0.4082892 0.16809164 -0.21981658
000090 4a 7f 42 be 06 34 d6 be 9f 32 fd 3d b2 20 b0 3e
       -0.1899387 -0.41836566 0.12363171 0.34399945
0000a0 eb 64 24 be 24 17 70 be c8 67 3b 3e d5 7b 40 3e
       -0.16054122 -0.23446327 0.18301308 0.18797238
0000b0 72 28 2e 3e ab 1a 4b 3e ca 48 93 bd 79 63 a6 3e
       0.17007616 0.19834392 -0.07191618 0.32497767
0000c0 a8 da 65 be a3 94 fc 3b bc 27 52 3d 76 a3 ca be
       -0.22446692 0.0077081486 0.051307425 -0.39577836
0000d0 46 46 9b be d9 be a2 bd ee 8d 0c bd d1 8d 71 3c
       -0.30327052 -0.079465576 -0.034315042 0.014743284
0000e0 12 a0 5a 3c 1c 04 37 3d 0f b8 45 be 71 cd 65 be
       0.013343828 0.044681653 -0.19308494 -0.22441651
0000f0 95 76 6c 3f a2 e9 b8 3e 52 85 79 3e c7 d4 37 be
       0.9236844 0.36115748 0.24367264 -0.17952262

hardtanh_19_bias f4 [64]
000000 c0 9a 8a be fd 72 21 be cb 75 04 3e c0 fa 02 bf
       -0.2707119 -0.15766521 0.1293556 -0.51163864
000010 f8 ad 08 3f 8b cd 00 be ab cd 1a be 02 de 74 3e
       0.53390455 -0.12578408 -0.15117519 0.23912814
000020 37 18 38 bf 52 7a 15 3f a4 b6 86 bd eb 65 f1 be
       -0.7191195 0.5838977 -0.06577805 -0.4714807
000030 d2 12 08 bf 16 24 f6 be 65 d4 c8 be 6d bf 83 be
       -0.5315372 -0.48074406 -0.39224544 -0.25731984
000040 c9 5f 5c 3e c3 8c 2c be f2 35 8a 3e 02 09 2c 3e
       0.21520914 -0.16850571 0.26994282 0.16800311
000050 78 26 9d 3d a8 6b 40 3e 02 74 13 bf c6 48 1d 3e
       0.07673353 0.18791068 -0.5759889 0.15359792
000060 2a 85 d6 bc 7f 92 bc bd d2 96 91 3e 9a ac ef 3d
       -0.026186544 -0.092076294 0.2843538 0.11702843
000070 f3 41 23 be 1b 25 66 be e4 66 f3 bc d2 aa 0d bf
       -0.15943126 -0.22475092 -0.029712148 -0.55338776
000080 9c bb 32 bf c4 47 63 3e c9 d0 9c 3e 5d 74 56 3d
       -0.6981752 0.22195345 0.3062804 0.052357066
000090 25 f9 86 bd 99 32 12 be f6 0b fc bd 76 cc 43 3e
       -0.06590489 -0.14277114 -0.12306969 0.19120964
0000a0 49 72 eb 3e ce 11 41 3c a4 d5 40 ba 8c 4f c5 3d
       0.4598563 0.01178403 -0.00073560537 0.09634313
0000b0 a9 71 b1 bd dc de 18 be 66 53 7f be 4a 5d af be
       -0.08664257 -0.14928764 -0.24934158 -0.3425086
0000c0 2e ec 6d 3e ce 1f a5 be 34 5a f8 bc 01 13 0e bd
       0.23234627 -0.32250828 -0.03031645 -0.034686092
0000d0 9f 9c b3 be 50 4f 94 3e 75 47 0e 3d cf 83 96 bd
       -0.3508043 0.2896676 0.034736115 -0.07349359
0000e0 df 89 48 3e 07 83 9b be 48 fd 47 bf 96 aa aa be
       0.19583844 -0.30373403 -0.7812085 -0.33333272
0000f0 8d 9d 4c 3d 14 67 a4 be 18 04 32 bd f3 14 3a 3e
       0.04995494 -0.32109892 -0.043460935 0.18172054
